saved_models/edge_detector_model_1.pth (torch, 439788 bytes, 7 tensors)

encoder.0.weight f4 [64, 3, 3, 3]
00000000: 49cd 813d d013 d93d 6df0 d13a 9a35 c7bd
00000010: 3e51 0ebe 5571 1f3e 98ba 34be d331 bdbd
00000020: 6802 35bd c9fe cb3d 8db0 313e 931b 1abb
00000030: b600 34bd d566 3cbd 840a 30be bf84 3b3c
00000040: 6927 2cbc 9b42 c43d 7026 393d ef3d a53d
00000050: 9638 9cbd 8d06 203e e40c 31be 53ed e5bd
00000060: f4a5 1d3e a152 34be 7d72 02bd f413 9c3d
00000070: 10da 0ebe 9d59 5b3d 301f 063e 872b 133e
00000080: d524 04be e91e 10bc 6253 0dbe faf8 c6bb
00000090: 2b58 2d3e 237a 0b3e bab2 f7bd 68cc 313e
000000a0: 1ccb 043e d574 fc3d 2b8a 6bbd 5193 243e
000000b0: ac89 ec3a 00e0 f13c 72ee 173e 6282 d6bd
000000c0: 9510 dfbd ffb9 04be cacf fc3d 9b58 d5bc
000000d0: 62ac 3d3d 4976 2dbd cb51 083e edd2 0d3e
000000e0: 78f5 18bd 7217 013d dd8a a4bc 9fb0 073e
000000f0: 3f28 e83d 5235 b13d 9fa0 e6bd 676b 4f3c
00000100: 4382 b33d 8aef 093d bbd1 273e e789 7fbd
00000110: f8d1 ebbd 0ae1 333e 4e4a 3ebe fa19 67bd
00000120: 302b 3d3e 175a a43c fc64 923d c8d7 0bbd
00000130: 4f25 6b3c b081 36bd 4b61 cabd e492 18be
00000140: 42a9 1a3e 0da8 e83d a799 603d bf22 d63c
00000150: e4f1 07be 6e8d aabd 2373 f53d b616 18be
00000160: a3d9 2abe 33fa b03d b64b 24be 681a ec3b
00000170: bd2b 4c3e 5185 e83d 09ca 163e ce00 3c3e
00000180: 1f1b 23be 183b 733d 7b26 10be 54cb 0ebe
00000190: c548 2abe 2a8e 25be 3dcf 963d cbec 3d3e
000001a0: 0f01 99bd 3d4f 3dbe 360a 263e 2ef7 d13d
000001b0: 24f8 fa3d a5b7 b83d f051 11ba d24b 1b3e
000001c0: e6dc 0dbe 101b efbd 822f 3a3e dd7e 573d
000001d0: 16dc fa3d 1918 41be 7c21 bbbc fa11 0f3e
000001e0: 24d9 0bbe 370b 03be a58e da3d 9a07 31be
000001f0: d519 373e 4492 223e f188 26be f293 df3d
00000200: a879 773c 6c66 2cbe c674 073e 396a 173d
00000210: dacf 55bd 6620 223e 16e2 b6bc 0c42 f63d
00000220: 843a 1cbe 4460 5b3e 59d9 a4bd 4e00 5d3e
00000230: 16da 743b 9b47 81bd f75e 0fbe eb57 c7bd
00000240: 19e7 923c 6764 e6bd 62e1 e7bc f92a 52bd
00000250: 86f1 093e 0eb2 153c b5ac 473e 238e efbd
00000260: 8a80 adbc 12d2 d2bd 9c2e 4f3e 9de3 33bd
00000270: dada f6bc 31a9 84bb 9d74 25be 8026 9a3d
00000280: 516b 193e bb9a 22be c613 e5bd 2ecd d83a
00000290: 2275 313e 626c 343c 80a7 ef3d 79a1 373e
000002a0: 61e0 a43c 96b3 2bbe 8f9b 793d 7235 0bbe
000002b0: 7066 423e 3080 493c d913 2cbe 11dd b73d
000002c0: 80e2 debd f3c9 453e f3fd ef3d 8a8e b83d
000002d0: 6481 dabd ce71 e13d b519 34be cf3e 403e
000002e0: 0d42 88bd 0546 0cbe 2824 a13c 8e27 e03d
000002f0: 1009 4c3e 38a0 bcbd ca33 0a3e 981a 293e
00000300: 288d 1cbe c478 f5bc 5734 dfbd 581a 883d
00000310: 7a91 81bc 5e4d bf3d f155 06be 4769 0f3e
00000320: 9db3 31be 79bf f83d ef0e 18be d83e ad3d
00000330: 4714 bfbd cd14 14be 47f0 2abc 6188 f53d
00000340: 561a 2c3e 49d1 debd 92cb f73c 8955 1b3e
00000350: bbf9 373e b1b9 d83d aa02 80bd 8280 86bd
00000360: 20c1 0a3e 35c9 99ba c8a0 3abe ab96 213e
00000370: bf13 0fbd 00de 1ebe f528 0bbe f07c 2d3e
00000380: 6eb4 9f3d 441a efbd b81a 7e3d 6dc2 983b
00000390: b954 4a3e 73a1 1ebe b3a5 35be 0b92 9c3d
000003a0: 48cc 1f3d 1ac7 81bd f56a 25be 18f4 62bc
000003b0: 3024 a7bd 70fb d53d 29e2 193d b513 b0bb
000003c0: e30d 263e b79d 82bd db7b 143d 45f3 363e
000003d0: dfd5 6ebd 33d2 933c cd38 32be 4a93 253e
000003e0: 9a86 3cbd 35e9 25be 1251 34be 54b6 d0bd
000003f0: 156f c93d 36f7 b2bd 7943 063e 04f5 dbbd
0.06337983 0.10599482 0.0016017087 -0.097270206 -0.13898179 0.15570576 -0.17649305 -0.09238019
-0.044191748 0.09960706 0.17352505 -0.002351497 -0.04394599 -0.045996506 -0.17191511 0.011445223
-0.010507443 0.095830165 0.045202672 0.080684535 -0.076279804 0.15627499 -0.17290074 -0.112269066
0.15395337 -0.17609645 -0.031847466 0.07620993 -0.13950372 0.05355226 0.13097835 0.14372073
-0.12904675 -0.008796432 -0.1380134 -0.006072161 0.16928165 0.1362081 -0.12094636 0.17363131
0.12968105 0.123269714 -0.057504814 0.16071822 0.00180464 0.029525757 0.14837053 -0.10474087
-0.10891835 -0.12961577 0.1234432 -0.026043227 0.046306975 -0.042349134 0.13312452 0.13849993
-0.037343472 0.0315165 -0.020085746 0.1325097 0.11335801 0.08652748 -0.11261105 0.012659884
0.0876508 0.033675708 0.163886 -0.062387373 -0.11514658 0.17566314 -0.18583032 -0.056421258
0.18473506 0.02006249 0.071481675 -0.034141332 0.014352157 -0.044557273 -0.098818384 -0.14899784
0.15103629 0.11360178 0.054834034 0.026139615 -0.13275868 -0.08327757 0.11984851 -0.14852414
-0.16684584 0.08641472 -0.16044506 0.0072052963 0.1993856 0.11353553 0.14725508 0.18359682
-0.15928315 0.059382528 -0.14077179 -0.13944751 -0.16629322 -0.16167513 0.07363746 0.1854736
-0.07470905 -0.18487258 0.16214833 0.10252224 0.1225436 0.090194024 -0.00055435207 0.15165642
-0.13853797 -0.11675084 0.18182185 0.05261122 0.12249009 -0.18856849 -0.022843115 0.13971701
-0.13657051 -0.12797247 0.106717385 -0.17288056 0.17880948 0.15876108 -0.16263177 0.1091689
0.015104689 -0.16835946 0.1322814 0.036966536 -0.052200176 0.15832672 -0.022324603 0.12024316
-0.15256697 0.21423441 -0.08049268 0.21582147 0.0037361435 -0.06312486 -0.1400107 -0.09733566
0.017932462 -0.11249619 -0.028305713 -0.051310513 0.1347104 0.00913669 0.19499476 -0.11697032
-0.021179456 -0.10293974 0.20232624 -0.04391824 -0.030133653 -0.0040484895 -0.16157766 0.075268745
0.14982344 -0.15879337 -0.11185412 0.001654064 0.17329839 0.011012169 0.1170187 0.1793269
0.020126523 -0.16767725 0.060939368 -0.13594607 0.1898439 0.012298629 -0.16804446 0.08977712
-0.10883045 0.19315319 0.11718359 0.09011562 -0.106692106 0.11008035 -0.17587931 0.1877396
-0.06653223 -0.13698585 0.019670561 0.109450445 0.19925332 -0.09210247 0.13496318 0.16514051
-0.15288222 -0.029964812 -0.10898655 0.0664565 -0.015816439 0.093409285 -0.13118722 0.14005004
-0.17353673 0.121458955 -0.14849447 0.08459252 -0.093300395 -0.1446106 -0.010433263 0.11988903
0.16806921 -0.10879762 0.030248437 0.15169348 0.17966358 0.10582293 -0.06250508 -0.0656748
0.13550234 -0.0011732938 -0.18225396 0.15780132 -0.03493094 -0.15514374 -0.13589843 0.16942191
0.07798086 -0.11674932 0.0620372 0.0046618492 0.19758882 -0.15491275 -0.1773899 0.07645043
0.039013177 -0.06336804 -0.16154082 -0.013852142 -0.08161199 0.104483485 0.0375692 -0.005373443
0.16216235 -0.06377738 0.03625093 0.17866237 -0.058309432 0.018044567 -0.1740448 0.16169468
-0.046026804 -0.16202243 -0.17609051 -0.10191026 0.0983564 -0.08738558 0.13111676 -0.107400924

encoder.0.bias f4 [64]
00000000: 2580 563e 6368 c7bc 10cb efbc 2128 243e
00000010: 9704 393e 3046 c43d 69ee 1ebe 5a0a d13d
00000020: c3c2 173e bef8 133e d065 d0bd b940 08bd
00000030: 2dff a83d 4693 b1bc 758e 353e a95b 91bd
00000040: 1338 59bd d9ec 1dbc 168b 15be 2c2f 0b3e
00000050: e9d9 403e e6fb 733d 87fe 91bc 0e2b 12bd
00000060: f2d0 c8bd 1a95 97bd 904d 2e3e 01dc 1e3d
00000070: ec6a 8abd 8ed6 b33d e3f6 07bd 2ad6 013e
00000080: 6be9 24bd 55b2 9e3d 1159 193e 7d7c 8d3d
00000090: 29df 14bd b401 afbc 1f63 ff3d ddce f53d
000000a0: cd5a 533e d0a6 913d 33d7 f5bb 65cb 623d
000000b0: 1560 64bd e53f 733c 8424 b9bd cb89 1abe
000000c0: 13b0 1cbe 62d9 1ebe 06f1 15bd ab61 a7bd
000000d0: 5518 01bc 4461 273d 9fab 933d 6673 803d
000000e0: 685c a0bd b276 ddbd d2ba 16be 3ffa 9f3d
000000f0: 66d7 553e 61a0 203e 478c 23bd 0e36 1fbd
0.20947321 -0.024341768 -0.029271632 0.16030933 0.18068157 0.095837 -0.15520634 0.102070525
0.1482039 0.14450356 -0.10175669 -0.03326485 0.08251796 -0.02167667 0.17730124 -0.07097561
-0.053031992 -0.009638988 -0.14603838 0.13592213 0.18833126 0.0595664 -0.017821563 -0.03568559
-0.09805478 -0.07401486 0.17021775 0.03878403 -0.06758675 0.087811574 -0.033194434 0.12679353
-0.040261667 0.07748858 0.14975382 0.0690851 -0.036345635 -0.021363117 0.12470078 0.12002347
0.20640106 0.07111895 -0.0075024604 0.055369753 -0.055755693 0.014846777 -0.09040168 -0.15091626
-0.15301542 -0.15512612 -0.03660681 -0.081729256 -0.007879336 0.040864244 0.072104685 0.062720105
-0.07830125 -0.10813655 -0.14719704 0.078114025 0.20882949 0.1568618 -0.0399287 -0.03886991

encoder.2.weight f4 [128, 64, 3, 3]
00000000: b5f9 f83c 5972 3c3c 57ed 7d3d cb01 a9bc
00000010: 8f8e ae3c b82a 323c d9bf 383d 41ce 473d
00000020: 3ba3 833c feb9 243c 2d8f 103c b8e1 a13a
00000030: 520e dfbb 678d d9bb 965e e0b9 e006 c8bb
00000040: 4824 61bc b06b a7bc 68ca 54ba 561d 9b3c
00000050: a80f 3fbc 6033 76bc 0dda 78bc e538 d5bc
00000060: 0c04 803b 293f 6b3b d4f2 243d 03c0 073d
00000070: cb26 0cbc 71f7 983d 6af2 ec3c a1de 1e3d
00000080: d5db 983d 52e6 303d 677b 1fbc 42df b13c
00000090: 4727 063d 8378 d43b d6f1 4b3d 3594 65bc
000000a0: 0665 b73b d7a2 0d3d 07dc c7bb cdcc 0f3d
000000b0: 80e5 d1b6 6583 a63c 210e 833c 047d 443d
000000c0: 359b 163d bebd 843b 23bd 513d e13c 8f3d
000000d0: 5d1d 7a3d c07e 823d c766 ec3b 6a60 d83c
000000e0: bf8c 163d fc1e 8bbc e7f0 273d 2d84 903b
000000f0: d230 e83c db9c 8f3c a861 1d3c ba92 a6bc
00000100: 785a 8d3c f56e e63c af17 053d dec6 e43c
00000110: ce25 3d3c fccf a1bc 30f3 bcbc d2d7 d53c
00000120: 7948 b33a e5d9 263d a578 983c f0a6 66bc
00000130: 8826 583d 2168 c3bc 21be 4f3d 3e4a 24bb
00000140: 731e c83b 5762 1b3d 616c 283d 616c 223d
00000150: 5ace bebc 35a8 583d c705 6e3d aecc cebc
00000160: cc5c 5d3d 20e6 20bc 8f04 c33c f505 f1bc
00000170: 76bf 253a b079 9e3c c316 5bbd 4dc2 40bd
00000180: 02e0 c63c e80b 70bd b1f9 dcbc 8187 0f3c
00000190: 67a6 443d e283 223d f8a1 e93c fb3f 513c
000001a0: 86c8 69bc 9020 0c3d 97ed 74bd e376 65bd
000001b0: 2371 643b 37fe 783c 7f1b d73c aa33 90ba
000001c0: 7932 e2ba 42e2 ab3c 4dcc e3bb 170e 0e3d
000001d0: 078d 2d3d 5555 fe3c 3374 f1bc 2805 d73b
000001e0: db08 a83c 99a3 0a3a 9208 033b 4224 0f3d
000001f0: 4985 303d 6dd8 2c3d f8b7 473d 6b4c 0fbc
00000200: 7417 af3b 9088 03bd 5f2d 413d 0e74 303d
00000210: 8a27 4dbc 1005 d83c bedf 883c 0398 0abd
00000220: 3cf9 183d 329c 0a3d 50df a53c 4aee 6fbc
00000230: 25d9 ee3c 6b7d 10bd 67c4 64bc 13f0 1d3d
00000240: 33e7 cdbc 8d38 1fbd 4c2e 73bd 7a51 10bd
00000250: a257 59bd fbe8 05bd a40e 1bbd 4711 3abc
00000260: bf17 f5bc dd7b 34bc 8ff2 08bd aace 83bc
00000270: 1bc1 1a3d 8439 b6bc e9f2 59bc 1f58 e6bd
00000280: 1f11 5dbd cdc3 c5bd e099 33bd c9ad 4ebc
00000290: aa32 c6bc 8527 9a3c be50 0e3c a5a4 a63c
000002a0: 5aae efbc 9b41 823c f22d ff3c 724a ee3c
000002b0: 9e8b ab3c ff8c 5c3c c8fa 30b9 971d c4bb
000002c0: fb79 d63c 5a01 ecbc a6ec c3bb 2d9d 183d
000002d0: d158 cabb e906 ddbc b841 253c 1602 d83c
000002e0: f210 7d3c b7d3 b53b 714f 663b bd74 473d
000002f0: ea2b 493d c577 543d d7e0 0e3d 8787 693d
00000300: 90c7 6e3c a0d8 803d d97c cc3b 6740 653d
00000310: 5ad9 713d f3ae ef3c f5fa 683d 6bd8 0abd
00000320: 18a7 94bd 395f 4cbc 2b60 a3bd 5d58 2bbd
00000330: 96e7 7fbd 36a4 d3bd 1900 71bd 2028 283d
00000340: 534d 0fbd 8c87 453d 4dc5 a03c 5d2c 20bd
00000350: 3fe3 c2bc 434f dcbb b42d 02bc d5f7 95bc
00000360: e65c 0cbd 4653 3ebd 5cc2 0cbd 575e 6abd
00000370: 58c4 3cbd 2f4d debb 5001 c2bc 0472 46bd
00000380: 2c6b b6ba a237 163b 27b4 583c 38e1 483d
00000390: 21ef a43c 0c30 b3bb 16fb 8a3c 52be f3bc
000003a0: 4f43 a2bc f5a4 aebc 6c92 e53a df86 6abc
000003b0: e484 393b 9b9d 6bbc 01ba 0abb 45ba 5fb9
000003c0: 142e 03bc d005 4c3d 84aa 90bb 5db6 39bc
000003d0: 679f 0e3d 3858 bf3b cf68 b93c 392d fcbc
000003e0: 466e 5f3c 01a6 c6bc 277d b1bc ec46 b6bc
000003f0: c4db 90bc 697a a93c 9085 a1bc 0482 2fbc
0.030392507 0.011501872 0.061993923 -0.020630738 0.021308212 0.010874443 0.045104835 0.048780683
0.016069045 0.01005411 0.008823198 0.0012350595 -0.006807127 -0.006639171 -0.0004279508 -0.006104335
-0.01374156 -0.020437092 -0.0008117319 0.018934887 -0.011661448 -0.015026897 -0.015188706 -0.026028106
0.0039067324 0.00358958 0.04027064 0.0331421 -0.008554171 0.07469071 0.028924186 0.038786534
0.07463805 0.0431884 -0.009734011 0.021712903 0.0327523 0.0064840927 0.04979118 -0.014012386
0.0055967597 0.034579124 -0.0060992274 0.035107423 -6.2554027e-06 0.020326326 0.015997948 0.047970787
0.03676911 0.0040509393 0.051205765 0.069940336 0.06106316 0.06371832 0.0072144005 0.026413161
0.03675532 -0.016982548 0.041001227 0.004410288 0.028343592 0.01753085 0.009605803 -0.020333637
0.017255053 0.02812908 0.03249329 0.027926859 0.011544658 -0.019752495 -0.02306518 0.026103888
0.0013678215 0.040735144 0.018612215 -0.014077887 0.05277112 -0.023853363 0.05071843 -0.0025068666
0.0061071455 0.03793558 0.041118983 0.03965414 -0.023291755 0.05289479 0.05811098 -0.025244083
0.054043576 -0.009820491 0.023805885 -0.029421786 0.00063227804 0.019345134 -0.053488504 -0.0470603
0.024276737 -0.058605105 -0.02697453 0.008760334 0.048010256 0.039676555 0.028519616 0.012771602
-0.014269 0.03421074 -0.059796896 -0.056021582 0.0034857474 0.015197328 0.026258228 -0.0011001725
-0.0017257474 0.020981912 -0.006951845 0.034681406 0.042370822 0.031046549 -0.029474353 0.006561894
0.020512035 0.000528866 0.0019994122 0.034946688 0.04309586 0.042198587 0.04875943 -0.008746247
0.005343372 -0.032112658 0.04716241 0.04307943 -0.012521634 0.026369601 0.016708251 -0.033836376
0.037347063 0.033840366 0.020248085 -0.014644215 0.029156277 -0.035275858 -0.013962842 0.03855903
-0.025134658 -0.03887229 -0.059370324 -0.035233952 -0.05306209 -0.03269289 -0.03785576 -0.011356658
-0.02991855 -0.011015859 -0.033434447 -0.016089756 0.037781816 -0.022244222 -0.013302543 -0.112472765
-0.053971406 -0.09656487 -0.04384792 -0.012614676 -0.02419408 0.018817673 0.008686243 0.02034218
-0.029257942 0.015900424 0.031149838 0.029088233 0.020940598 0.01346135 -0.00016878091 -0.0059849727
0.026181212 -0.028809238 -0.0059791384 0.03725927 -0.0061751385 -0.026980834 0.010086469 0.026368182
0.015445935 0.00554892 0.0035142566 0.048695315 0.049114145 0.051872034 0.034882393 0.057014015
0.014573947 0.06291318 0.006240469 0.055969622 0.059045173 0.029258227 0.056879956 -0.0338978
-0.07258433 -0.012473875 -0.07977327 -0.041832317 -0.062476717 -0.10334055 -0.058837984 0.04105389
-0.03498585 0.04822497 0.01962533 -0.039104808 -0.02379 -0.006723316 -0.007945467 -0.018306652
-0.034268282 -0.046466134 -0.034365043 -0.057218876 -0.046085685 -0.0067841033 -0.023682266 -0.048448578
-0.0013917438 0.0022921343 0.013226545 0.04904291 0.020133557 -0.005468374 0.01696543 -0.029753838
-0.019807486 -0.021318892 0.0017514951 -0.014314382 0.0028307969 -0.014380838 -0.0021167996 -0.00021336328
-0.008006591 0.04981023 -0.0044148583 -0.011334983 0.034819987 0.005839374 0.022632984 -0.030783283
0.013637131 -0.024249079 -0.021666123 -0.022250615 -0.017682917 0.020688253 -0.019717008 -0.0107121505

encoder.2.bias f4 [128]
00000000: 803a e53b 7e98 f33b deb3 77bc de6d c8bc
00000010: 475c 94bb 8dc3 b33c c8d7 063c dc1e 243d
00000020: 8ef0 61bb c170 493d 032d 48bb 6cf4 383d
00000030: ca20 a43c e1de 1d3c 6862 dcbb da47 9539
00000040: 005b 8dbb 0efe d6bc f899 513d 3b9d a2bb
00000050: 8a39 1f3c f34e fbbc 861d 1f3d 3e81 5f3c
00000060: 41c6 1d3d 4367 b0bc be6d 50bd 0c9a a3bb
00000070: d9bc 603b 331d a9bc 2423 183d 260b afbc
00000080: a231 003d 6525 8c3c 1ec4 363d 8eb2 913c
00000090: ff88 083d 1895 cbbb 6795 473c 3022 d7bc
000000a0: fa29 2c3c 20fc cc3c e0bd 363c 895a 2b3d
000000b0: 5628 ef3c 0cf7 14bc ff48 c03c 10e3 74bc
000000c0: d584 833c 6025 283d 89ec 323d 618e 063d
000000d0: fc0a d73c d1d3 283d a7ce a3bc cf26 c23b
000000e0: 56aa 5c3d 4d2f 3f3c 0f0f 52bc 2233 e7bb
000000f0: f488 383c edd8 d53c ecf4 7a3d c290 293d
00000100: 3027 1c3d aa23 1d3d 4ccb ac3c e588 7fbb
00000110: d186 dfbc b3e1 273d f1f3 673c d071 c4bc
00000120: 07ea dc3c 4e4d a3bc a0ec 013d 3471 83b9
00000130: 225a 133d df83 c9bc 5ab5 babc 57b0 e03a
00000140: bf16 9f3c ca16 ec3c 2a75 a53c 6027 443d
00000150: 407e 2c3d c868 cabc 870b 093d 5a90 ebbc
00000160: a37f 433d e68f 493d 6018 d4bc d1da 593d
00000170: 18ab 013d f04e aabc 68f7 09bb e4d4 d33c
00000180: 1156 25bd 6fdc 2b3d d619 33bc 71d6 133d
00000190: 3bf9 943b 8f92 20bc 2f18 b2bb efed bbbc
000001a0: 3661 0d3d 2095 9a3c 32e7 9c3c 0816 0dbc
000001b0: 7a26 ce3b cb36 fa3b 56bb 4d3d 4aea b23c
000001c0: 20f9 323c 70be 9f3b d4dc 38bc 235d 91bc
000001d0: 548b 3c3d 880e ad3c b442 34bb 5c1f a7bc
000001e0: 7e4a 6f3c cb45 c83b 9244 a63c 5aad 0abd
000001f0: 7d9b 333d eca4 233d 8eec 3e3d 7b2f 283d
0.006995499 0.00743395 -0.015118567 -0.024466451 -0.004527602 0.021943832 0.008230157 0.040068492
-0.0034475657 0.049179796 -0.0030544407 0.045154974 0.020035166 0.009635658 -0.006725598 0.00028473028
-0.0043138266 -0.02624419 0.051172227 -0.004962591 0.009718308 -0.030677294 0.038846515 0.013641654
0.038519148 -0.021533614 -0.05088591 -0.004992729 0.003429225 -0.020643806 0.037142888 -0.02136762
0.031297334 0.017107675 0.044620626 0.017785337 0.033333775 -0.0062128417 0.012181616 -0.026261419
0.010508055 0.025022566 0.011153668 0.041834388 0.029194038 -0.009092104 0.023472307 -0.014946714
0.01605455 0.04105127 0.04368261 0.032850627 0.026250355 0.04121763 -0.019996 0.0059250365
0.053873383 0.011668992 -0.012820973 -0.007055656 0.011263121 0.026104415 0.061268732 0.041397817
0.03812331 0.03836409 0.021093033 -0.0038991508 -0.027285965 0.040986728 0.014157281 -0.023980051
0.026967062 -0.019934323 0.031719804 -0.0002507061 0.03597463 -0.024599014 -0.022791553 0.0017142397
0.019420026 0.02881946 0.02019747 0.047889113 0.04211259 -0.024708167 0.03345826 -0.028755356
0.047729146 0.049209498 -0.02589053 0.053187195 0.03165731 -0.020789593 -0.0021052007 0.02585835
-0.040365282 0.04195827 -0.010931453 0.03609318 0.004546312 -0.009800567 -0.005435012 -0.022940604
0.034516536 0.018869936 0.019153211 -0.00861121 0.006291208 0.0076359264 0.050227486 0.021840233
0.010923654 0.004874997 -0.011283118 -0.017744606 0.04603131 0.021125093 -0.0027505578 -0.020400696
0.014605163 0.0061118356 0.020296369 -0.033856727 0.043849457 0.039952204 0.046612315 0.041060906

decoder.0.weight f4 [128, 64, 2, 2]
00000000: c50a f0bc e227 fc3b 9884 d03c fcdb 05bd
00000010: 10c0 3cbd fa9f 4d3d 3f39 8b3c 2f5a 2bbd
00000020: 74ea 663d d23d 5cbd 3175 f0bc 2f72 623c
00000030: 441c 2abd 8c21 8a3d f487 583c dfe5 21bd
00000040: 4358 d3bb dc2a 81bd 8298 73bd eafc 303d
00000050: 229a 9b3d 2c95 8cbc 3ea3 2dbd 0e32 7d3d
00000060: bd64 2bbb 2eff eabb fa01 463d 3864 39bb
00000070: 5d40 2fbc 604f 6dbc 3de0 d0bc 1d64 293d
00000080: 1f50 443d 6b95 873d e253 2d3d d9e8 0a3d
00000090: 7658 a73c 7e46 43bd c5e4 43bd e61a 633d
000000a0: d209 ddbb a7c0 72bd 71d5 653d a45a 05bd
000000b0: 2e71 fa3c d65b 1f3d e951 ff3c e847 033c
000000c0: af76 703d fb79 803d 5f93 2e3c 6037 f8bc
000000d0: d1c7 1b3b a793 0bbd 9851 853d 2935 de3c
000000e0: 68cf 3e3c 6444 eebc d4c8 15bd 6dc5 3d3b
000000f0: a614 d93c 3058 d8bc 1b74 4abd 3e85 3dbd
00000100: d8a2 92bc c31c 8f3c 8414 67bc 2b46 04bc
00000110: 766b b1bb c587 2d3d 6047 41bd e76b 193d
00000120: d0d4 49bd f483 c7bc 7fff 2bbd a98c c6ba
00000130: 6c7e 9c3d b59b 0cbd eb25 35bd 7ec5 4bbd
00000140: 8e34 623d 604d 43bd e3d6 a53d 5c79 b0bb
00000150: 089b 24bd 3ceb 64bd 0edc 6dbd 256b f33c
00000160: cfd4 0f3c aeaf 75bd 4f7f 2ebc 66ff 42bc
00000170: 7af8 a4bc 7978 e5bc 7480 263b a536 8e3d
00000180: fac9 b2bb 6ef0 f9bc 6dec f13c 9de2 69bb
00000190: 2445 89bd 23e8 e2bc d4cf e03c 458e 2abc
000001a0: 9a89 453d 0d75 91bc c328 003d 2fc4 8c3b
000001b0: e18e 0b3d ae63 7b3d a745 f03b 3533 aa3c
000001c0: 66a9 003d 12d0 d13c 69f0 23bd f2f3 1abd
000001d0: 2077 ac3c 6011 c3bb 8d8a 3d3d e4e6 313d
000001e0: 96e8 43bd bc83 25bc e5c3 123d 83fd bebc
000001f0: b5a4 1f3d 93f9 133c dd5b 48bd 8f02 70bc
00000200: f4a0 923d d426 6e3d 7fa4 6e3d 275c 18bd
00000210: 6cdc 8bbc 9855 4ebd 7b1e 393d 3216 c0bc
00000220: cc70 54bd 4abb d3bc 7998 443d 832b 893d
00000230: d47f e73a 6add 65bd 2e84 7f3c f949 1a3a
00000240: c025 f13b f21d 233d e12a 6a3d 5b32 cbbc
00000250: 5fee dabc 56e5 893d 1016 d0bc e005 823c
00000260: 3f94 4c3d b67c 89bc 15d6 9abb 86ab 30bd
00000270: f27a 2dbc 07bb 973c 8267 23bc 6609 863b
00000280: 89bc 33bd 0799 ccbc 249c 183d 5878 26bc
00000290: 2bc8 25bd a568 313d c0f3 863d 62b6 3c3c
000002a0: 3225 6d3d 2261 2dbd 140d 22bc 66b4 85bd
000002b0: 7d24 053c cbf6 ffbc 9748 c3bc 92c9 1c3d
000002c0: 99d3 893d 63cf 733d 016c fd3a 40b1 0e3d
000002d0: e5eb 093d 72d4 e6b6 6148 03bd 9b86 ca3c
000002e0: 2874 8abd cff4 2dbd ee65 083c 77ff 81bc
000002f0: 45f4 37bd 21b8 813d 3478 34bd f5fd 0f3d
00000300: e44e 7e3d c4d1 33bd c210 3cbc 0c6b 85bd
00000310: 089f bf3c 2797 c6bc 0193 6a3c 4454 353d
00000320: 77eb 54bc 8688 8c3d e758 55bc f8d4 35bd
00000330: d03b 37bd 60d3 2ebc d1f6 23bc e7ef 49bd
00000340: 2456 5f3d 5db5 b73c 4fd6 573d 8382 9b3c
00000350: f705 21bd 8aa6 1f3b e1dc d33b c53b dabc
00000360: daab 563d 15d1 a4bc 6645 6ebc d2dc 2abc
00000370: 48ee 923c ee68 1f3d 100e 873c d940 e43c
00000380: e516 1d3c e63c 8bbc b996 9e3c 4a9a 093d
00000390: 7a49 03bc 8a5e 84bc c1c7 48bd b4df 1fbd
000003a0: e8f5 e0bc d2cf d33b a623 a23c f982 603d
000003b0: 9f0b 993d f434 c8bc e368 6c3d af53 cebc
000003c0: 249a 42bd 3889 e2bc a0f1 64bd 6f6a 763d
000003d0: e487 7abc 0202 4bbd 9cc4 a9bc d099 0c3d
000003e0: a686 1a3d 5898 65bd 7613 c7bc a237 1bbd
000003f0: 698c a4bc 8e7d 1abc 6e8f 6b3d c00d 023d
-0.02930201 0.007695184 0.02545385 -0.032680497 -0.046081603 0.050201394 0.01699507 -0.041834053
0.056375936 -0.053769894 -0.029352756 0.013821169 -0.041530862 0.0674468 0.0132160075 -0.039525863
-0.0064497306 -0.06307003 -0.059471615 0.043209948 0.07597758 -0.017160974 -0.042392008 0.061815314
-0.0026152574 -0.007171533 0.04834173 -0.0028288495 -0.010696498 -0.0144842565 -0.02549755 0.04135524
0.047927972 0.06620296 0.042316325 0.033913467 0.020427924 -0.04767465 -0.047825594 0.055445574
-0.0067455554 -0.05926576 0.056111757 -0.032557145 0.030571546 0.03890594 0.031166987 0.008012749
0.058706935 0.06273266 0.010655253 -0.030299842 0.0023770223 -0.03407636 0.065097034 0.027124958
0.011646129 -0.029085346 -0.036568478 0.0028956786 0.026499104 -0.026409239 -0.049427133 -0.046269648
-0.017899916 0.01746977 -0.014104012 -0.00807337 -0.0054144217 0.042365808 -0.04718721 0.03745642
-0.04927522 -0.024354912 -0.041991707 -0.0015148121 0.076413006 -0.03432818 -0.044225615 -0.04974889
0.0552259 -0.047681212 0.08097627 -0.005385561 -0.04018691 -0.0558884 -0.05807119 0.029714176
0.008778765 -0.059981994 -0.01065047 -0.011901712 -0.020138014 -0.028011547 0.0025406154 0.06944016
-0.0054562064 -0.030510154 0.029531682 -0.003568805 -0.06702641 -0.027698582 0.02744285 -0.010409896
0.04822693 -0.01775601 0.031288873 0.004295848 0.034071807 0.06137436 0.007332522 0.02077637
0.03141155 0.025611911 -0.040024195 -0.0378303 0.021052897 -0.005952999 0.04627471 0.043433085
-0.047829233 -0.010102209 0.03583135 -0.023314243 0.038975436 0.009031671 -0.048915733 -0.0146490475
0.071596056 0.058142498 0.058262344 -0.03719726 -0.017072879 -0.050374597 0.045195084 -0.023448084
-0.051865384 -0.025846142 0.04799697 0.06697752 0.0017661997 -0.05611936 0.015595479 0.00058856566
0.0073592365 0.03982348 0.0571698 -0.024804285 -0.026724992 0.067331955 -0.025401145 0.015871942
0.049946066 -0.0167831 -0.0047252276 -0.043132327 -0.0105883945 0.018521799 -0.009973409 0.004090476
-0.043880973 -0.024975313 0.037258282 -0.010160528 -0.0404741 0.043312687 0.065894604 0.011518093
0.0578968 -0.04232896 -0.009890813 -0.06528549 0.008126375 -0.03124561 -0.023838324 0.03827817
0.06729812 0.05952395 0.0019334556 0.034837008 0.033672232 -6.879266e-06 -0.032051448 0.024722388
-0.06760436 -0.042469796 0.008325083 -0.015868885 -0.044910688 0.06333948 -0.044059947 0.0351543
0.062086955 -0.04390122 -0.011478605 -0.06514558 0.023391262 -0.024241997 0.014317275 0.044269815
-0.012995592 0.06861977 -0.013021684 -0.044392556 -0.044734776 -0.010670513 -0.010007576 -0.049301054
0.05452551 0.022425348 0.052694615 0.018983131 -0.03931233 0.002436074 0.00646554 -0.026639828
0.052409984 -0.02011923 -0.014542913 -0.010428624 0.017935887 0.038918428 0.016486198 0.027862953
0.009587978 -0.016996812 0.01935898 0.033594407 -0.008013124 -0.016158361 -0.049018625 -0.0390317
-0.027461007 0.006463983 0.01979239 0.054812405 0.0747292 -0.024439313 0.057717215 -0.025186388
-0.04751028 -0.027653322 -0.055894494 0.060160097 -0.015291188 -0.04956246 -0.020723633 0.034326375
0.037726067 -0.05605349 -0.024301272 -0.037894852 -0.020086484 -0.009429349 0.057509832 0.031751394

decoder.0.bias f4 [64]
00000000: c762 593d e086 b4bb cd36 27bd 6521 483d
00000010: d4dd 8cbc aa33 223d 00e7 973c c28d 793c
00000020: 80f3 493d 2394 6f3d 723f 8fbb e150 513d
00000030: cce2 6c3d 8e49 c63c 9c53 5cbd 8ddf 78bd
00000040: 0355 e2bc f8fb 3e3d 5845 153d e450 883d
00000050: b313 333c 068a 2ebc 83f6 163d 6c5f f6bc
00000060: e20c f4bc 0009 86bc e1e1 c0bc aba8 5f3d
00000070: 31b0 db3c f6be 58bd efd3 d1bc 1e05 d33c
00000080: 489b 233d ac63 bc3c 4d7c 8b3d 0cb8 4abb
00000090: 24a9 eabb c8cb bdbc 0a65 f83c 07d0 8d3d
000000a0: 0254 0c3d 0b2d d93c 546a b6bc b155 0d3c
000000b0: f96e 833c df38 8a3c 4bb7 2b3d 1254 a3bb
000000c0: f76a fbbc 01a5 923d 6486 363c 058a fabc
000000d0: d510 2d3d 547d cabc 991f 903c 5712 5bbd
000000e0: cdb9 f5bc 0299 1a3b 7287 6b3c 9cd4 933d
000000f0: 5b53 7dbd 9e48 3bbc 28c1 bc3b 3260 14bc
0.053072717 -0.0055092424 -0.040823746 0.048859973 -0.01719562 0.039600052 0.018542767 0.015231552
0.049304485 0.058490884 -0.004371577 0.051102523 0.057833478 0.024204995 -0.053790674 -0.06076007
-0.027628427 0.046627015 0.036443084 0.06656054 0.01092999 -0.010653025 0.036856186 -0.030074798
-0.0297913 -0.016361713 -0.023545207 0.054604214 0.026817413 -0.05291649 -0.025613753 0.025759276
0.03994301 0.022996746 0.06810818 -0.0030932454 -0.0071612764 -0.02316846 0.030321617 0.06924444
0.034259804 0.026510736 -0.022267498 0.008626387 0.016044127 0.016872821 0.04192285 -0.004984387
-0.030690653 0.07160378 0.01114044 -0.030583391 0.04225238 -0.024717964 0.017593192 -0.053484287
-0.029995823 0.0023589735 0.014375554 0.072182864 -0.061847072 -0.0114308875 0.0057603307 -0.009056138

decoder.2.weight f4 [1, 64, 3, 3]
00000000: 6316 e7bb d927 63bd 0149 99bc b2ac cb38
00000010: 5e44 503c 19bd 87bc 7629 2fbd 9bd3 4bbc
00000020: f38b 30bd 02ce bbbc 5c90 b2bc 9c3e 693b
00000030: 96b8 abbc 622f eeb9 461d 6cbd b113 6fbd
00000040: 117e 56bc 5734 5ebd d70e 003c 578e 2dbc
00000050: 343c 883c f01a 933d 52a0 7a3d 25e6 973d
00000060: b1ed 863d 53d3 5e3d dc4f 573d 4507 cdbc
00000070: 5ef8 0f3a 27d8 07bd 64c7 9fbc cf88 63bd
00000080: b6bc 29bd 4543 853b 4e18 debc 3cde 61bd
00000090: fedb 2f3c 2690 0b3d 13a6 773b 7340 25bd
000000a0: 5984 5cbc 469d 2a3c b944 123d a97c 0dbd
000000b0: 2503 3b3c 0415 93bc e5b4 e3bc c069 63bc
000000c0: e54a 43bd 12c7 b8bc 7c7e 32bd 0b9b 22bd
000000d0: 4e81 a03a 31a4 0e3c 9987 38bd 1d67 0ebd
000000e0: 0394 5dbd e8ec 7ebc f716 4bbd 2606 70bc
000000f0: 3e28 14bd 7b3d 0cbd b6c3 643c 585f 843c
00000100: 8644 84bc ed95 36bd ea68 23bd 9f92 62bd
00000110: a1b1 a1bb b71d a93b 41bf c7bc 4b36 b3bc
00000120: 4e28 d3bb 3837 14bd 6277 c1bc 1da1 16bd
00000130: 7217 51bd 89df 27bd 75d7 d2bc b68f d9bb
00000140: bb64 353a 3165 04bd 941e 65bd 06fc 2bb9
00000150: 5cbb 7bbc 66d8 b83b 8986 8cbd c900 67bc
00000160: 009f 84bd 5f72 33bd 0925 083d 24a6 653d
00000170: 665a 2e3c 6b0a abbc 9658 7c3d dfd8 8d3d
00000180: c5ce 9d3c 91ed 983d 0cbb 213d 4a27 133c
00000190: 8e3e 2ebd 7491 8f3c c2c9 3ebc a842 9b3c
000001a0: 53da 233c e6c4 6f3c 6981 08bd d598 503c
000001b0: 1b56 0fbd d12c 4cbd 3b6a 8bbc abe7 d6bc
000001c0: e70a cbbc 2d36 ad3a 4def aa3a 1c77 47bd
000001d0: d44a 0bbd 5616 893b 153f 6bbd 8e78 afbc
000001e0: a24b b0bc 11fd d7bc 8e7b 7cbd a6cb a23c
000001f0: acb8 1abd 1aa7 5abd 8001 493d 9102 223d
00000200: 7eb9 6c3d 62a1 873d 2562 a23d ac84 b43d
00000210: b60b 723d 1eaa 5b3d e487 fc3c 535a 8f3c
00000220: efff 863d 6499 7b3d 65a1 c23c 402f 173d
00000230: 1855 123d fdbd 5b3c ce61 0f3d b411 2f3d
00000240: e2d9 af3d 4b50 d73d 7373 c73d b113 d23d
00000250: 6f5c 993d df33 b73d d13a 913d 2df9 aa3d
00000260: 5e10 ea3d f7a8 01bc 9b96 5fbc 38d0 babc
00000270: 1249 273d 0067 e73c 0a9f b53c 4c35 88bc
00000280: 22eb 013d 581b 0dbd a7d3 dbbc 0dad 3d3c
00000290: a25b 13bd 86a2 3fbd a289 e0ba 4132 45bd
000002a0: 9005 bc3c 23ac 32bd 4ced d0bc e02f f9bc
000002b0: 0002 09bd b94e 3bbd 7cb7 59bd e1ab 1ebd
000002c0: ad36 3d3c 9071 ad3c 6ae5 2abd b549 923c
000002d0: 50ea aa3c 9527 23bd 849d 0ebc 7cd7 09bd
000002e0: ef39 79bd 54d0 61bd 8ad9 39bd b57c 1abc
000002f0: bcf3 03bc 9360 c83b 7e2f be3c a0a8 363d
00000300: 01ee 093d 3bd9 983d 5514 853d 0cb8 e23c
00000310: 86b5 693d a88b 893c dc11 f73c ebcd 0b3d
00000320: ea60 013b 7516 13bd cf3f f53c a8c8 0e3c
00000330: 5d1b 3bbd 4c46 20bc 6c05 8fbc 99b4 2cbd
00000340: 6796 88bb 0900 60bd 225d 30bd 13a9 16bd
00000350: fcf8 44bc dca6 e0bc 2ec6 34bd 3614 8ebd
00000360: e105 a1bc c62e 73bc 815b 013b 6ef8 20bd
00000370: e501 d7bb 07ef 87bc ad79 fbbc fcf3 6cbd
00000380: 9488 0cbd 5bcf 163d aa0a e43d 58ff ac3d
00000390: 20ab 533d 8266 1b3e 233c 0d3e f4ca f13d
000003a0: 078f 203e 6764 ef3d 116d 1a3d 404e 93ba
000003b0: 08b4 7f3d 7872 563d 429a 093d 6c31 083d
000003c0: b3b6 a43c dd44 bc39 3e7e 783d cb6e 38bd
000003d0: 8a7f 43bd 118a 00bd 8e1a 71bc e28f 193b
000003e0: 5ab7 5bbd c7c5 8e3c 86c2 4cbd fd98 423c
000003f0: e227 9bbc d4ad a63c 914d a8bc 5d4c b1bc
-0.0070522293 -0.055457924 -0.018711569 9.711961e-05 0.0127116125 -0.016569661 -0.04276415 -0.012440587
-0.043102216 -0.02292538 -0.021797352 0.0035590297 -0.02096204 -0.000454302 -0.057645105 -0.05836839
-0.01309158 -0.054249134 0.007816038 -0.0105930185 0.01663027 0.07182872 0.06118805 0.074169435
0.06588305 0.054400753 0.052566394 -0.02502788 0.00054920267 -0.033165123 -0.019504257 -0.055550393
-0.041439734 0.004066857 -0.027111199 -0.05514358 0.010733603 0.034073018 0.0037788197 -0.040344667
-0.0134592885 0.0104134735 0.03571007 -0.034542713 0.011414324 -0.017954357 -0.027796218 -0.013880193
-0.047678847 -0.022555862 -0.043577656 -0.03969864 0.0012245567 0.0087061385 -0.04505119 -0.034766305
-0.054096233 -0.015559413 -0.049582448 -0.014649903 -0.03617119 -0.03423832 0.013962677 0.016158745
-0.016145956 -0.044576574 -0.039894976 -0.05531561 -0.004934505 0.005161013 -0.02438319 -0.021876475
-0.0064440137 -0.036185473 -0.023616496 -0.036774743 -0.05104775 -0.040984664 -0.025737504 -0.006639446
0.0006919612 -0.032323066 -0.055937365 -0.00016401717 -0.015364494 0.005641031 -0.06861598 -0.014099308
-0.06475639 -0.043810245 0.033238444 0.056066647 0.01064167 -0.020878991 0.06160792 0.069261305
0.019263634 0.07467187 0.039485022 0.008981535 -0.042540126 0.017525412 -0.0116447825 0.018952683
0.010000783 0.014634347 -0.03332654 0.0127317505 -0.034994226 -0.049847428 -0.017018428 -0.026233515
-0.024785472 0.0013214998 0.0013041288 -0.048697576 -0.03400691 0.004183571 -0.057433207 -0.02141979
-0.02152044 -0.026365789 -0.06164127 0.019872498 -0.037773773 -0.053382017 0.049073696 0.03955323
0.057794087 0.06622578 0.07928876 0.08814368 0.0590932 0.053629033 0.030826516 0.017499125
0.06591784 0.06142558 0.0237586 0.036910295 0.035725683 0.013411996 0.035005383 0.042741492
0.0858648 0.105133615 0.09738817 0.10257662 0.074883334 0.089454405 0.070912965 0.08348308
0.11428903 -0.0079138195 -0.013646747 -0.022804365 0.04084117 0.028247356 0.022170562 -0.016626976
0.03171838 -0.034449905 -0.026834322 0.011576903 -0.03597606 -0.046785854 -0.0017130862 -0.04814363
0.022951871 -0.043621194 -0.025503777 -0.030418336 -0.033449173 -0.045729373 -0.0531535 -0.038738135
0.01154868 0.021172315 -0.041722693 0.017857412 0.020863682 -0.03983267 -0.008704547 -0.033652768
-0.060846265 -0.055130318 -0.045373477 -0.009429147 -0.008053716 0.006115028 0.023216005 0.044594407
0.033674244 0.074633084 0.06498019 0.027675651 0.05705788 0.016790226 0.030159883 0.034131926
0.0019741603 -0.03591009 0.029937653 0.008714832 -0.045680393 -0.009782385 -0.01745864 -0.04216442
-0.00416832 -0.054687534 -0.04305757 -0.036782335 -0.012022253 -0.027423315 -0.04413431 -0.06937449
-0.019656124 -0.014842695 0.0019738378 -0.03929942 -0.006561505 -0.01659347 -0.030697668 -0.05784987
-0.03430994 0.036818843 0.111348465 0.084471405 0.05167687 0.15175822 0.13792472 0.11806288
0.1567956 0.11689072 0.03770167 -0.001123853 0.06242755 0.05235526 0.033594377 0.033250257
0.020106649 0.0003590946 0.06066727 -0.045027535 -0.047729053 -0.03138167 -0.014715804 0.0023431708
-0.053641655 0.017428292 -0.0499902 0.011877296 -0.018939916 0.02034656 -0.020544799 -0.021642858
